lc2fen/detectboard/models/laps_model.onnx (onnx, 299663 bytes, 26 tensors)

dense_3/kernel:0 f4 [1152, 2]
0	0x3da2f6ee	0.07957254
1	0xbd73accc	-0.059490964
2	0x3d43e711	0.047827784
3	0xbdae3d45	-0.0850778
4	0x3dd1ce9b	0.10244485
5	0xbda9499a	-0.082659915
6	0x3c8f3423	0.017480915
7	0xbc142780	-0.009042621
8	0xbe2e200d	-0.17004414
9	0x3dfcebc6	0.12349658
10	0xbdc97119	-0.09836025
11	0x3dd11af5	0.1021022
12	0x3d9e94a4	0.07743195
13	0x3be47fb4	0.006973231
14	0xbd05659a	-0.032567598
15	0xbc9e2a47	-0.019307269
16	0xbd4c379d	-0.049857724
17	0x3d53e483	0.051731598
18	0x3cb71a94	0.02235154
19	0x3cd30127	0.025757385
20	0xbddcbe70	-0.107785106
21	0x3e084c7d	0.13310428
22	0xbbc4c41c	-0.0060048234
23	0x3b73c18c	0.003719422
24	0xbc4ffc26	-0.012694394
25	0x3db8c458	0.090218246
26	0xbc313cfd	-0.010817763
27	0x3da7e121	0.08197237
28	0xbdc7326f	-0.09726416
29	0x3ceb8ffe	0.028755184
30	0x3dedd5c3	0.116130374
31	0xbd7e2e82	-0.062056072
32	0x3e13895f	0.14407872
33	0xbd9e40ed	-0.07727227
34	0xbe321446	-0.17390546
35	0x3e1d877d	0.15383716
36	0x3c779d9b	0.01511326
37	0xbda91391	-0.08255685
38	0x3cefa7a7	0.029254748
39	0xbd6ef017	-0.058334436
40	0x3d8145b8	0.06312126
41	0xbc1ab328	-0.009442128
42	0xbd5051b0	-0.050859153
43	0xbd05b6e8	-0.032645136
44	0x3dc662e9	0.09686834
45	0xbc75fcde	-0.0150139015
46	0xbc78694f	-0.015161826
47	0xbcdb5d0f	-0.026777772
48	0xb8467980	-4.7320034e-05
49	0x3d3467a0	0.044044137
50	0xbcee84ab	-0.029115995
51	0xbd963316	-0.073339626
52	0x3de6cda6	0.11269693
53	0xbd023b16	-0.03179463
54	0xbd4bed5e	-0.049786918
55	0x3dc46ee6	0.09591465
56	0x3d28364b	0.041067403
57	0xbe12cf83	-0.14336972
58	0xbbeed8ae	-0.007289014
59	0xbe009861	-0.12558128
60	0x3c1c9dda	0.009559119
61	0xbbe4d41a	-0.0069832923
62	0x3d3dba01	0.046319965
63	0x3c953e09	0.018218057
64	0xbe1e4d6e	-0.15459225
65	0x3e063436	0.13105854
66	0x3d918355	0.07105128
67	0xbcbcd08c	-0.023048662
68	0x3d8d15f3	0.06888952
69	0x3c87bcd5	0.016569534
70	0x3ce0c63c	0.027438276
71	0x3c9875b0	0.018610805
72	0xbdcc8d18	-0.09987849
73	0x3de60d1a	0.11232968
74	0xbde8934b	-0.11356219
75	0x3d9616cc	0.07328567
76	0xbe0ddc76	-0.1385363
77	0x3c90d8cb	0.0176815
78	0xbd90270f	-0.070387
79	0x3d78d1cf	0.060746964
80	0x3bcef04c	0.0063152667
81	0x3d89c8ab	0.067277275
82	0xbe0a49db	-0.13504736
83	0x3e0444d8	0.12916887
84	0xbd4c94fe	-0.049946778
85	0x3d47be8a	0.048765697
86	0x3d81d7e3	0.06340005
87	0xbdd5ae83	-0.10433676
88	0x3dc892cc	0.09793624
89	0xbd2c9ae7	-0.042139914
90	0x3e2363b1	0.15955998
91	0xbd6df24a	-0.058092393
92	0xbe2ae1fb	-0.16687767
93	0x3da45d4d	0.08025608
94	0xbddeaaec	-0.108724445
95	0xbc8f06c8	-0.017459288
96	0x3cf521a9	0.029923277
97	0xbd361879	-0.044456933
98	0xbd82b834	-0.0638279
99	0x3c309dd9	0.010779821
100	0xbdb21653	-0.08695664
101	0x3e3b5028	0.18292296
102	0xbd21ff3e	-0.03955006
103	0x3c4225e9	0.011849859
104	0xbd220a4c	-0.0395606
105	0xbc1312a2	-0.00897661
106	0xbc92e26d	-0.017930234
107	0xbd096e40	-0.03355241
108	0xbdd9dba5	-0.10637597
109	0x3d6a092a	0.057137646
110	0x3cc71fe7	0.024307204
111	0xbc576b14	-0.013148088
112	0x3c741307	0.014897115
113	0x3ca63294	0.02028779
114	0x3cf25adb	0.029584339
115	0xbc146721	-0.009057791
116	0x3e04bf0c	0.12963504
117	0xbd37749e	-0.04478895
118	0xbe036f15	-0.12835343
119	0x3d3e0291	0.046389166
120	0x3d209244	0.03920199
121	0xbde35312	-0.11099829
122	0x3e22d514	0.15901595
123	0xbdd7fb05	-0.10545925
124	0x3dd5d071	0.10440148
125	0xbda9e0e9	-0.08294851
126	0x3b27b3b6	0.0025589294
127	0xbb522fc4	-0.0032071928
128	0xbbeb2b7f	-0.007176816
129	0xbd1345f0	-0.03595537
130	0x3d40cd9f	0.047071096
131	0xbccefcfc	-0.025267117
132	0x3de6cc18	0.112693965
133	0xbdf1f90f	-0.11815082
134	0xbd8bf731	-0.068342574
135	0x3d5cfe18	0.05395326
136	0x3cd3a534	0.02583561
137	0xbdb58a97	-0.088643245
138	0xbcc70f3e	-0.02429926
139	0x3cc0ad95	0.02352027
140	0xbdab6e59	-0.083706565
141	0x3e04141b	0.12898295
142	0xbdcc83c5	-0.099860705
143	0x3d5bbc19	0.05364618
144	0xbb61671e	-0.0034393738
145	0xbbe701ce	-0.0070497757
146	0x3cc767ee	0.02434155
147	0x3cb80f48	0.022468224
148	0x3ce2faec	0.02770754
149	0xbd6b1888	-0.05739644
150	0xbe4a0ee0	-0.19732237
151	0x3d913791	0.070906766
152	0x3d99ef37	0.0751633
153	0xbc61d209	-0.013782986
154	0x3e19efc9	0.15032877
155	0xbd8832f5	-0.06650344
156	0xbc2ae13a	-0.010429675
157	0xbd937c54	-0.07201448
158	0xbcea32b7	-0.028588636
159	0xbad8a69b	-0.0016529144
160	0xb89a19d0	-7.3481e-05
161	0xbd960403	-0.07324984
162	0xbdb2d621	-0.08732248
163	0x3cddbff3	0.027069068
164	0xbdbad164	-0.09121969
165	0x3cd5fb59	0.026120828
166	0xbdbdd922	-0.092699304
167	0x3da2c1a6	0.07947092
168	0xbdca874c	-0.09889087
169	0x3e22d438	0.15901268
170	0x3caf3be1	0.021390857
171	0x3b94f638	0.004545953
172	0xbddf21f0	-0.10895145
173	0x3de32ec7	0.110929064
174	0xbcba383e	-0.022731896
175	0x3d896ec1	0.06710578
176	0x3dface11	0.12246335
177	0xbe4bbc66	-0.19896087
178	0x3d1ad6e0	0.037802577
179	0x3c8caed2	0.017173205
180	0x3e205840	0.15658665
181	0xbe485a2c	-0.19565648
182	0xbde8fc27	-0.11376219
183	0x3e08f35d	0.13374086
184	0xbde8e625	-0.113720216
185	0x3df949fb	0.12172314
186	0xbda14196	-0.07873838
187	0x3d073cd6	0.033017002
188	0xbb82e24b	-0.0039942614
189	0x3d246470	0.040134847
190	0xbcfd21c7	-0.030899895
191	0x3d9385e8	0.07203275
192	0x3c177c78	0.009245984
193	0xbdeb2f7a	-0.11483665
194	0x3d11db61	0.035609607
195	0x3d2b2219	0.041780565
196	0xbcba1012	-0.022712741
197	0x3e221294	0.158274
198	0xbd178b0f	-0.03699785
199	0x3be57c15	0.007003317
200	0xbe196d9a	-0.14983216
201	0x3e2eb14d	0.17059822
202	0xbdb06400	-0.086128235
203	0x3c0bc098	0.008529805
204	0xbd905d89	-0.070490904
205	0x3c8277e5	0.01592631
206	0x3d977277	0.07394879
207	0xbdcfa6ad	-0.10139213
208	0xbc1f9528	-0.009740151
209	0x3da4fa64	0.08055571
210	0x3d856209	0.06512839
211	0xbd5afcd9	-0.05346379
212	0xbdd5dcbc	-0.10442492
213	0x3dcfd73a	0.10148473
214	0xbdc3bcde	-0.09557508
215	0x3c694fa6	0.014240181
216	0xbc8f2f41	-0.017478587
217	0x3d48334e	0.048877053
218	0xbe017d87	-0.12645541
219	0x3d68d33e	0.05684208
220	0x3af6ad95	0.0018820042
221	0xbcc584ca	-0.02411117
222	0x3c2df59c	0.01061764
223	0xbda10e7d	-0.078640915
224	0x3e3ebb1a	0.18626061
225	0xbda0efa7	-0.0785821
226	0xbd869d6a	-0.06572993
227	0x3dda8705	0.10670284
228	0xbd1a66e1	-0.03769577
229	0xbd5b10df	-0.053482886
230	0x3d066a76	0.032816373
231	0x3c33b9a4	0.010969553
232	0xbd96a448	-0.07355553
233	0x3d1d5adc	0.03841673
234	0x3cf1c763	0.02951402
235	0x3ca4894c	0.020085
236	0xbdd5f420	-0.10446954
237	0x3d595884	0.05306293
238	0xbe1cc6a3	-0.15310149
239	0x3dd6fbca	0.10497244
240	0xbdb3f18d	-0.087863065
241	0x3db99a6f	0.09062659
242	0x3dc0fabc	0.09422824
243	0xbd03ae35	-0.03214856
244	0xbd214563	-0.039372813
245	0xbb1b1cad	-0.0023668215
246	0x3d7e8ece	0.062147908
247	0xbd33b758	-0.043876022
248	0x3dc30375	0.09522144
249	0xbcf3e971	-0.0297744
250	0xbc9d718f	-0.019219188
251	0x3d3334a0	0.04375136
252	0xbb01663f	-0.0019744781
253	0xbad9368e	-0.0016572045
254	0x3de7b9f4	0.113147646
255	0xbe180e60	-0.14849234

dense_3/bias:0 f4 [2]
0	0xbd715d52	-0.058926888
1	0x3d715d9e	0.05892717

dense_2/kernel:0 f4 [16, 128]
0	0xbe542b99	-0.20719756
1	0x3ce10130	0.027466387
2	0x3d2598c7	0.040428903
3	0x3d0da912	0.034585066
4	0x3dc35004	0.09536746
5	0x3d51712b	0.051133316
6	0x3d2fa771	0.042884294
7	0x3e71a48c	0.23597926
8	0xbd9fb389	-0.077979155
9	0x3e45099e	0.1924195
10	0x3e8549d6	0.26032895
11	0x3dbeb8d5	0.09312598
12	0xbe2948f0	-0.1653173
13	0x3ef4587d	0.4772376
14	0x3e7c9c1b	0.24668925
15	0xbc02a5ea	-0.007974127
16	0xbd88c414	-0.06678024
17	0xbc96dc8e	-0.018415716
18	0xbe8a6bab	-0.2703527
19	0x3e15b1ab	0.14618556
20	0x3e94f5b1	0.29093698
21	0x3e76e7cd	0.24111862
22	0x3d2e44af	0.04254597
23	0xbeb67823	-0.35638532
24	0x3eda5720	0.42644596
25	0xbb679bac	-0.003534059
26	0xbd88ded3	-0.06683125
27	0x3bf1eb3a	0.0073827775
28	0x3de5a2d0	0.11212695
29	0x3ddad24c	0.10684642
30	0x3e1582ef	0.14600728
31	0xbc61fa04	-0.0137925185
32	0xbe033038	-0.12811363
33	0x3dfa8979	0.12233252
34	0xbe5bca02	-0.21463779
35	0xbe8ae757	-0.27129623
36	0xbe285dc6	-0.16442022
37	0x3dcfe0ce	0.101503
38	0x3ebb9fb1	0.36645272
39	0x3ea6fe80	0.32616043
40	0xbeb99670	-0.36247587
41	0xbd1b93dd	-0.03798281
42	0xbe1357e7	-0.14389001
43	0xbe44da36	-0.19223866
44	0x3d3da6fe	0.046301834
45	0xbd83b747	-0.06431442
46	0xbe30f34d	-0.17280312
47	0xbd6908d3	-0.05689318
48	0x3c89d249	0.016823905
49	0xbd34ce28	-0.04414192
50	0xb977d558	-0.00023635232
51	0x3e267e20	0.1625905
52	0x3e977c04	0.29586804
53	0xbe76b939	-0.24094094
54	0x3e2946f6	0.16530976
55	0xbe5d3437	-0.2160195
56	0xbdd1adb3	-0.102382086
57	0xbeb5cb61	-0.35506728
58	0x3a1d4a30	0.00060001295
59	0xbe80fbba	-0.25192052
60	0xbdd61d16	-0.104547665
61	0xbd353ce8	-0.044247538
62	0x3df5d5e9	0.12003691
63	0x3eb7f33c	0.3592776
64	0x3e288bd1	0.16459586
65	0xbd117b7b	-0.03551815
66	0x3c889799	0.01667385
67	0xbd82c896	-0.06385915
68	0xbd5e020b	-0.054201167
69	0xbea814f4	-0.32828486
70	0x3e6a6a6c	0.22892159
71	0x3ce85812	0.028362308
72	0xbe34c2af	-0.17652391
73	0xbe238497	-0.15968548
74	0x3e8173df	0.25283715
75	0x3e4bbb0d	0.19895573
76	0x3de49abb	0.11162325
77	0xbddb20a9	-0.10699589
78	0x3d7669ae	0.060159378
79	0xbe9a3f9a	-0.3012665
80	0x3e1050c3	0.14093308
81	0xbdb75ef1	-0.089536555
82	0xbcd93aa4	-0.02651722
83	0xbd55ab46	-0.052165292
84	0xbab4b236	-0.0013786021
85	0x3ef85028	0.48498654
86	0xbedce1e5	-0.43141094
87	0xbd489524	-0.048970357
88	0x3d6e6980	0.05820608
89	0x3e64343f	0.22285555
90	0xbe40d418	-0.18830907
91	0xbe88eba0	-0.26742268
92	0x3d55d895	0.0522085
93	0x3e9bfc79	0.3046606
94	0x3dfe01fb	0.124027215
95	0xbe5e1de0	-0.21691084
96	0xbcc91d44	-0.024550088
97	0xbe231bd8	-0.1592859
98	0x3ea60b03	0.32430276
99	0xbe904e47	-0.2818472
100	0xbdef0850	-0.11671507
101	0xbd448cfe	-0.047986023
102	0x3e697144	0.22797114
103	0x3dddc881	0.10829259
104	0xbe93111c	-0.2872399
105	0x388d2340	6.72997e-05
106	0xbd772019	-0.060333345
107	0x3ea32a21	0.3186808
108	0x3e153cd0	0.1457398
109	0xbb96433f	-0.004585653
110	0x3d76d91f	0.060265657
111	0xbe03d0f7	-0.12872683
112	0xbd7331b7	-0.059373584
113	0x3c7ace98	0.015308045
114	0xbd4a8372	-0.049441762
115	0xbe091301	-0.13386156
116	0x3dd8afc7	0.10580402
117	0xbdc943b7	-0.09827369
118	0x3e79f421	0.24409534
119	0x3d76818b	0.060182136
120	0xbd758cd1	-0.059948746
121	0x3e6d7cfc	0.23192209
122	0xbeb3dd96	-0.35129994
123	0x3e81f7d9	0.25384405
124	0x3deeaca2	0.11654021
125	0xbe7359ea	-0.23764768
126	0x3e4a283e	0.19741914
127	0xbe571698	-0.21004713
128	0xbd99888a	-0.07496746
129	0x3de1cb6f	0.1102513
130	0x3ed2ca10	0.41169786
131	0xbb669c79	-0.003518848
132	0xbeb2187a	-0.347843
133	0xbe955da4	-0.29173005
134	0x3ebda3a8	0.37038922
135	0xbe25936c	-0.16169518
136	0xbe9053f4	-0.2818905
137	0xbeb6ab0f	-0.35677382
138	0xbe484f69	-0.19561543
139	0xbe55af4a	-0.20867649
140	0x3e0a3d0a	0.13499847
141	0xbd5652df	-0.052325126
142	0xbe9f388e	-0.31097835
143	0x3eb60916	0.35553807
144	0x3dbe4ad5	0.09291617
145	0xbe947754	-0.2899729
146	0x3e4e4f02	0.20147327
147	0x3e5c699e	0.21524665
148	0x3e74148b	0.23835962
149	0x3e2c84a4	0.16847473
150	0xbca06c0d	-0.019582773
151	0x3d5734ad	0.05254047
152	0x3e866aa3	0.26253232
153	0x3e05306b	0.13006751
154	0x3e7e5999	0.24838866
155	0xbe0941d9	-0.13404025
156	0x3e9d4b35	0.3072144
157	0x3e5a9327	0.21345197
158	0xbe6f721e	-0.23383376
159	0xbc51de32	-0.012809323
160	0xbece4494	-0.40286696
161	0x3eb2b01d	0.3489999
162	0xbd1b4ce4	-0.037915125
163	0x3d8ae9b5	0.06782857
164	0xbe6e5bb8	-0.23277175
165	0x3e5ce606	0.21572122
166	0xbc12c6ce	-0.008958532
167	0xbe8db1f4	-0.2767483
168	0x3cd30bb2	0.025762413
169	0xbd94247e	-0.07233523
170	0x3cfe14f8	0.031015858
171	0xbbe366e2	-0.006939755
172	0x3e43414d	0.19067879
173	0x3dbe8fed	0.093047954
174	0xbea3cdfc	-0.3199309
175	0xbe4cc939	-0.19998635
176	0x3e8578aa	0.26068622
177	0x3e4a5e41	0.19762518
178	0xbe06fcc1	-0.13182355
179	0x3cf2721b	0.029595425
180	0x3e10c7ea	0.14138761
181	0x3e129b36	0.14317021
182	0xbe871307	-0.26381704
183	0x3e812a3b	0.25227532
184	0x3e7e34aa	0.24824777
185	0x3c9c9857	0.01911561
186	0x3d15ffca	0.036620893
187	0xbd59f0f2	-0.0532083
188	0x3e0ee256	0.13953528
189	0x3e671422	0.22566274
190	0x3e95ff07	0.29296133
191	0x3eacce6d	0.3375124
192	0x3ec7474a	0.38921577
193	0x3e1f2bd6	0.15544066
194	0x3ef61155	0.48060098
195	0x3dc1e1f1	0.09466923
196	0x3de5d78e	0.112227544
197	0x3d6951a6	0.05696263
198	0x3dda4721	0.10658098
199	0x3debca2c	0.115131706
200	0x3e3c8d8b	0.1841337
201	0x3dbc7e5a	0.09203787
202	0x3e35ddf0	0.17760444
203	0xbe9f53c5	-0.311186
204	0x3e807e19	0.25096205
205	0x3eadf236	0.33973855
206	0x3e372a15	0.17887147
207	0x3d17386d	0.036919046
208	0x3b9f368c	0.0048587974
209	0xbe6c83b4	-0.23097116
210	0xbeac26b7	-0.33623287
211	0xbea2edcf	-0.3182206
212	0xbe76d260	-0.24103689
213	0x3ea4cfb3	0.32189712
214	0xbeb4f782	-0.35345083
215	0xbe607f65	-0.21923597
216	0xbd7e914d	-0.06215029
217	0xbc87627f	-0.016526459
218	0x3d1f0545	0.038823385
219	0x3d1e35dd	0.038625587
220	0xbdf81bb7	-0.12114661
221	0x3e1305e8	0.14357722
222	0x3e36a446	0.17836103
223	0xb98b0bf6	-0.00026521058
224	0x3e3f7a50	0.18699002
225	0x3d7f5fec	0.062347338
226	0xbe58fb17	-0.21189533
227	0x3d8b436f	0.06799971
228	0xbd76eb0d	-0.060282756
229	0xbe8a4e1f	-0.27012727
230	0xbdbac45b	-0.09119483
231	0x3e7d93e9	0.24763454
232	0xbe150e93	-0.14556341
233	0x3e718481	0.23585702
234	0xbe5ee39e	-0.21766517
235	0x3e122b03	0.1427422
236	0xbe7e3131	-0.24823453
237	0x3e1782e3	0.14796023
238	0xbd97d1ec	-0.07413086
239	0xbdfc7d63	-0.12328603
240	0xbe141d99	-0.14464416
241	0x3d94d4fe	0.072671875
242	0xbcc8ed4c	-0.024527214
243	0x3e12096d	0.14261408
244	0xbdc6877f	-0.096938126
245	0x3e4bf56d	0.19917841
246	0xbd80d4c3	-0.06290581
247	0xbed7db39	-0.4215944
248	0xbd904921	-0.07045198
249	0x3bc5f0c7	0.006040666
250	0x3e9407f7	0.28912327
251	0x3ec27332	0.37978512
252	0x3eb69566	0.35660857
253	0x3e048830	0.12942576
254	0x3e8baec7	0.27281782
255	0x3dedaeaa	0.1160558

dense_2/bias:0 f4 [128]
0	0xbe00a66e	-0.12563488
1	0xbdfe8e25	-0.12429456
2	0xbe0c0e85	-0.13677414
3	0xbaa16f09	-0.0012316416
4	0x3afc8c0e	0.0019267814
5	0xbe573eaf	-0.21020006
6	0xbe6f158f	-0.23348068
7	0xbdfaff8e	-0.122557744
8	0xbdd56e0c	-0.104213804
9	0xbdc726f9	-0.0972423
10	0xbd85bb02	-0.065298095
11	0xbdb98926	-0.09059362
12	0xbd29d235	-0.041460235
13	0xbe08fc59	-0.13377513
14	0xbdcefd18	-0.101068676
15	0xbd8299e3	-0.06377008
16	0xbddf2eba	-0.10897584
17	0xbdc4dee3	-0.09612825
18	0x3a8190f7	0.0009885122
19	0xbe087b03	-0.13328175
20	0xbe200302	-0.15626147
21	0xbd25d0db	-0.040482383
22	0xbe041e41	-0.12902166
23	0x3c18c814	0.009325046
24	0xbe0f54c4	-0.1399718
25	0xbdeca1a8	-0.11554271
26	0xbe068663	-0.13137202
27	0x3d544ea8	0.051832825
28	0xbcf16c9c	-0.029470734
29	0xbdb4fd8a	-0.08837421
30	0xbcc3b8e6	-0.023891877
31	0xbe093395	-0.13398583
32	0xbddc3328	-0.10751945
33	0xbda22f7f	-0.079192154
34	0xbc1eaceb	-0.009684782
35	0x3c9cb13d	0.019127483
36	0xbd0553e8	-0.032550722
37	0xba038912	-0.00050176785
38	0xbe21ec6e	-0.15812847
39	0x3c825320	0.015908778
40	0xbd1370b7	-0.035996165
41	0xbc877b8a	-0.0165384
42	0x3ce21116	0.027596038
43	0x3d136572	0.035985418
44	0xbd20d0fb	-0.0392618
45	0xbe05ae26	-0.13054714
46	0xbdf55b7f	-0.11980342
47	0xbdf50928	-0.11964637
48	0xbd837384	-0.06418517
49	0xbde68956	-0.112566635
50	0xbdfae382	-0.12250425
51	0xbdd9b3cd	-0.106299974
52	0xbdd56c25	-0.104210176
53	0x3d90ba39	0.07066769
54	0xbdd45a76	-0.103688166
55	0xbd056132	-0.032563396
56	0xbd3df364	-0.046374694
57	0xbd30f590	-0.043202937
58	0xbdbacc8f	-0.09121048
59	0xbc5e4cf2	-0.01356815
60	0xbd79ef3e	-0.061019175
61	0xbd17451a	-0.036931135
62	0xbe113dd4	-0.14183742
63	0xbe0cf2b9	-0.13764466
64	0xbe0547fb	-0.1301574
65	0xbdbf32e9	-0.09335882
66	0xbe041567	-0.1289879
67	0x3d676b23	0.056498658
68	0xbdf192e3	-0.117955945
69	0xbc30a65a	-0.010781849
70	0xbde6418c	-0.11242971
71	0x3c9269cf	0.01787272
72	0x3c9e4e1f	0.01932436
73	0x3d16adc6	0.036786817
74	0xbd23e8b5	-0.04001685
75	0xbd76d855	-0.060264904
76	0xbdf80878	-0.1211099
77	0xbe22cb2a	-0.15897813
78	0xbe033805	-0.12814339
79	0xbd8ea9cd	-0.06965981
80	0xbd6e83db	-0.058231216
81	0xbdb0fbc2	-0.08641769
82	0xbd00f5be	-0.031484358
83	0xbe04905d	-0.12945695
84	0x3c8a2133	0.016861534
85	0xbdeae5c2	-0.11469604
86	0xbdb416ab	-0.08793386
87	0xbd1550f7	-0.036454167
88	0x3b90ff12	0.004424938
89	0x3c2898d6	0.010290345
90	0xbd4e1b53	-0.050319027
91	0xbdc49676	-0.09599011
92	0x3d58b0e2	0.052903064
93	0xbe0e3568	-0.1388756
94	0xbe4e5cd5	-0.201526
95	0xbb8c2485	-0.0042768144
96	0xbc262e45	-0.010142867
97	0xbe0c326c	-0.1369111
98	0xbd12973e	-0.035788767
99	0x3d163fa6	0.036681794
100	0xbd3bdca4	-0.045864716
101	0xbb5dba7c	-0.0033833077
102	0xbdf8425a	-0.121220306
103	0xbe3cc3c9	-0.18434061
104	0xbc40833b	-0.011750038
105	0xbdd742fa	-0.10510822
106	0xbe29b2ac	-0.16572064
107	0x3c1f8419	0.009736084
108	0xbe284234	-0.16431504
109	0xbcd8a4f0	-0.026445836
110	0xbe5fc3b5	-0.21852
111	0xbe039d51	-0.1285298
112	0x3bbc36f7	0.005743857
113	0xbd3b991c	-0.045800313
114	0xbe0675d8	-0.13130891
115	0xbdd5b369	-0.104346104
116	0xb9ab6eed	-0.00032698308
117	0xbd905162	-0.070467725
118	0xbd984b5b	-0.07436248
119	0xbdbfebf5	-0.09371177
120	0x3b3af265	0.0028525826
121	0xbdffed37	-0.12496417
122	0xbcf5a589	-0.02998616
123	0xbe8f14f7	-0.27945682
124	0xbe1c4015	-0.1525882
125	0xbde6e417	-0.112739734
126	0xbd0f0a06	-0.03492167
127	0xbe0fae0a	-0.14031234

scale f4 [16]
0	0x3eec6cdd	0.46176806
1	0x3ec8f6a5	0.39250675
2	0x3ec95b8a	0.3932765
3	0x3eeeeafe	0.4666366
4	0x3ef7c98a	0.4839595
5	0x3ea9e689	0.33183697
6	0x3e6027d8	0.21890199
7	0x3ea22021	0.31665137
8	0x3e33df32	0.17565611
9	0x3ea7bff6	0.32763642
10	0x3e1d696d	0.15372248
11	0x3f46d6c5	0.7767146
12	0x3ea5d0c4	0.32385838
13	0x3eef98c3	0.46796235
14	0x3e98ce12	0.2984472
15	0x3f0242bc	0.5088308

bias f4 [16]
0	0xbed7008c	-0.41992605
1	0xbf652f78	-0.89525557
2	0xbf8a852c	-1.0821891
3	0xbe9319c2	-0.2873059
4	0xbe3bd8a4	-0.1834436
5	0xbfcbde43	-1.5927204
6	0xc0002418	-2.002203
7	0xbed2616b	-0.4108995
8	0xbfba01ff	-1.4531859
9	0xbfabb8a5	-1.3415724
10	0xbf9ba36f	-1.2159251
11	0xbc8a7420	-0.016901076
12	0xbfb998a6	-1.449971
13	0xbe8cdf75	-0.27514234
14	0xbfa53ef7	-1.290984
15	0xbed9e589	-0.42557934

mean f4 [16]
0	0x00000000	0.0
1	0x00000000	0.0
2	0x00000000	0.0
3	0x00000000	0.0
4	0x00000000	0.0
5	0x00000000	0.0
6	0x00000000	0.0
7	0x00000000	0.0
8	0x00000000	0.0
9	0x00000000	0.0
10	0x00000000	0.0
11	0x80000000	-0.0
12	0x00000000	0.0
13	0x00000000	0.0
14	0x00000000	0.0
15	0x00000000	0.0

var f4 [16]
0	0x3f800000	1.0
1	0x3f800000	1.0
2	0x3f800000	1.0
3	0x3f800000	1.0
4	0x3f800000	1.0
5	0x3f800000	1.0
6	0x3f800000	1.0
7	0x3f800000	1.0
8	0x3f800000	1.0
9	0x3f800000	1.0
10	0x3f800000	1.0
11	0x3f800000	1.0
12	0x3f800000	1.0
13	0x3f800000	1.0
14	0x3f800000	1.0
15	0x3f800000	1.0

conv2d_6/kernel:0 f4 [16, 16, 1, 1]
0	0xbe846ea5	-0.25865665
1	0x3e3a9f22	0.18224767
2	0x3e43cf3c	0.19122022
3	0xbe9abd2b	-0.3022245
4	0x3e88ff2c	0.2675718
5	0x3e50b879	0.2038287
6	0xbda99a12	-0.0828134
7	0xbe291aef	-0.1651418
8	0x3d3f742a	0.046741642
9	0x3e3f196a	0.18662038
10	0xbed049ee	-0.40681404
11	0xbdf2e03e	-0.11859177
12	0x3dfd19ab	0.123584114
13	0xbf0429d3	-0.5162632
14	0xbf31d6d9	-0.69468457
15	0x3dd42fda	0.103606895
16	0x3dabb361	0.08383823
17	0xbe553759	-0.20821895
18	0xbeb37fe8	-0.35058522
19	0x3e458724	0.19289833
20	0xbef5aff6	-0.4798581
21	0x3f099a7d	0.53751355
22	0xbc8c44f2	-0.01712272
23	0xbebeedaf	-0.37290713
24	0xbe26bced	-0.16283007
25	0xbdac1ef9	-0.08404345
26	0x3d411608	0.04714015
27	0xbd71d782	-0.059043415
28	0xbedb3e58	-0.42821002
29	0x3e026835	0.12735064
30	0x3e951a0d	0.29121438
31	0xbd8439e2	-0.06456353
32	0x3e4cc123	0.19995551
33	0x3e990088	0.29883218
34	0xbf17d0c3	-0.5930292
35	0x3ea7887a	0.3272131
36	0xbecb9cee	-0.39768165
37	0x3d48163d	0.048849333
38	0x3e0b7049	0.13617052
39	0x3d2cdee4	0.042204753
40	0xbedb5d4f	-0.42844626
41	0x3d56dae5	0.052454848
42	0xbf0710a0	-0.5275974
43	0x3d79489c	0.06086026
44	0x3e0aaeb2	0.13543203
45	0x3e9649d8	0.29353213
46	0x3ebc009f	0.36719224
47	0xbe9c582c	-0.3053602
48	0x3e947224	0.28993332
49	0xbe836437	-0.25662395
50	0x3e8022d7	0.2502658
51	0xbe3885eb	-0.18019836
52	0xbf3974b0	-0.72443676
53	0xbe7ec685	-0.24880417
54	0x3e6bb2e0	0.23017454
55	0xbe919d10	-0.28440142
56	0xbebaa0f4	-0.36450922
57	0x3e733be3	0.23753314
58	0xbedefa0f	-0.43550155
59	0x3ddb39a2	0.10704352
60	0x3d3c94ad	0.046040226
61	0x3da52954	0.08064523
62	0xbf1ea1f8	-0.61965895
63	0xbe028063	-0.12744288
64	0xbe38e8d3	-0.18057565
65	0xbe402a6b	-0.18766181
66	0xbe1d1dea	-0.15343443
67	0x3eb1ad71	0.34702638
68	0x3e54fc11	0.2079928
69	0x3e5772a0	0.2103982
70	0xbf2cd58a	-0.67513335
71	0xbe976340	-0.2956791
72	0xbeb37cc8	-0.35056138
73	0xbe2c2dcb	-0.16814344
74	0xbe382197	-0.17981564
75	0xbf27d634	-0.65561223
76	0xbe577e4f	-0.21044277
77	0xbe6bf8d6	-0.23044142
78	0xbe9cd5c4	-0.3063184
79	0x3e3b29e7	0.18277703
80	0xbdfd7752	-0.12376274
81	0x3ec217fd	0.37908927
82	0x3f042a53	0.5162708
83	0xbebae430	-0.36502218
84	0xbeda79f8	-0.4267118
85	0xbf1b5b9a	-0.6068665
86	0xbe2d9325	-0.16950662
87	0x3ebedfcc	0.37280118
88	0xbefcda6e	-0.493854
89	0xbdc6a51e	-0.09699462
90	0x3ed9ed58	0.4256389
91	0x3e639cd8	0.222278
92	0xbc2e58dd	-0.010641304
93	0x3bc9e34f	0.0061611305
94	0x3e0038d0	0.12521672
95	0xbd634b0d	-0.055491496
96	0xbf223207	-0.63357586
97	0xbe28329e	-0.16425559
98	0x3c2d2033	0.010566759
99	0x3ce5485c	0.027988605
100	0x3ebbff0d	0.36718026
101	0xbed6a0e2	-0.4191962
102	0xbe876eb5	-0.2645165
103	0x3e078f8c	0.13238353
104	0x3e93b18a	0.2884639
105	0x3c982730	0.018573374
106	0x3e8efa8f	0.27925536
107	0x3ed3a5e7	0.4133751
108	0x3ea538dc	0.32269943
109	0x3e8cd49f	0.27505967
110	0xbc859272	-0.016305182
111	0x3e45bedc	0.19311088
112	0xbe86482c	-0.26226938
113	0x3e2fd340	0.17170429
114	0x3e3b9244	0.18317515
115	0x3eae97a5	0.3410007
116	0x3df346e2	0.11878754
117	0x3e55309c	0.20819324
118	0xbf01f8f9	-0.5077053
119	0xbeb3276f	-0.34991023
120	0xbd2c9546	-0.042134546
121	0xbf1c8906	-0.6114658
122	0x3a99c161	0.0011730605
123	0x3e599d5e	0.21251437
124	0xbe8eb3b0	-0.27871466
125	0x3e8689c4	0.26276982
126	0xbcec2869	-0.028827863
127	0xbe976a97	-0.2957351
128	0xbeb156ca	-0.34636527
129	0x3de37315	0.111059345
130	0x3ecdeb04	0.40218365
131	0x3ec6732c	0.38759744
132	0xbdad1dd6	-0.084529564
133	0x3f0fd415	0.56182986
134	0x3db83543	0.08994534
135	0x3ea05df8	0.31321692
136	0x3a67839b	0.00088315614
137	0x3e9c3d9e	0.3051576
138	0x3e1be60b	0.15224473
139	0xbe4c1040	-0.19928074
140	0xbea5563a	-0.32292348
141	0xbceff6d2	-0.029292498
142	0x3eb1a19f	0.3469362
143	0x3e576b47	0.21037017
144	0xbe485966	-0.19565353
145	0xbc51ed49	-0.012812921
146	0xbe34b470	-0.17646956
147	0xbd1e26d5	-0.03861125
148	0x3f00bb71	0.5028601
149	0xbd00f263	-0.031481158
150	0x3eeb75f1	0.4598842
151	0x3e45c040	0.19311619
152	0xbf28ef34	-0.65989995
153	0xbe1c6045	-0.15271099
154	0x3e685bb5	0.22691233
155	0xbb1f3c7a	-0.0024297521
156	0xbd9ff2a2	-0.078099504
157	0xbe8c229f	-0.27370164
158	0xbe4a3737	-0.19747625
159	0x3e1aa5c0	0.15102291
160	0xbe919241	-0.28431895
161	0x3e568afa	0.20951453
162	0x3d89872f	0.06715237
163	0xbe937569	-0.28800514
164	0x3e28e2b0	0.16492724
165	0x3da2635a	0.07929106
166	0xbe8882cc	-0.2666229
167	0x3f2b74c3	0.6697504
168	0x3f02d5b6	0.51107347
169	0x3f0566e7	0.5211014
170	0x3e4297b5	0.19003184
171	0xbcd44700	-0.025912762
172	0xbe95c217	-0.2924964
173	0xbf146fa9	-0.5798288
174	0x3e91869b	0.28423008
175	0x3e1f730a	0.15571228
176	0x3e7cc282	0.24683574
177	0x3d831629	0.06400711
178	0xbe5b99b2	-0.21445349
179	0xbed8e264	-0.42360222
180	0xbded234c	-0.11578998
181	0xbe6dff55	-0.23241933
182	0x3e0f218c	0.13977641
183	0xbe08254b	-0.13295476
184	0xbddecc01	-0.108787544
185	0x3e90dc03	0.28292856
186	0x3d90ab0b	0.07063874
187	0xbec11b1f	-0.37716004
188	0xbf4d0afc	-0.80094886
189	0xbd9526c4	-0.072827846
190	0xbf1a79d4	-0.60342145
191	0xbf299f94	-0.6625912
192	0x3e01a4fd	0.12660594
193	0x3f148209	0.5801092
194	0x3cfe6011	0.031051667
195	0xbdb193b0	-0.08670747
196	0xbf010ed1	-0.50413233
197	0xbebf5c3f	-0.37375066
198	0x3d8d74a1	0.06907011
199	0xbeda74dc	-0.42667282
200	0x3e1788bc	0.14798254
201	0xbe57ea60	-0.210855
202	0xbdfdd03c	-0.12393233
203	0x3c5f87ae	0.013643188
204	0x3ecf8e96	0.40538472
205	0x3d785db8	0.060636252
206	0xbc7ecc1e	-0.015551595
207	0x3e8028d3	0.25031146
208	0xbe9b23de	-0.30300802
209	0x3eb5d7d7	0.35516235
210	0xbeedc55d	-0.4643964
211	0xbd94cb21	-0.07265306
212	0x3d86fe87	0.06591516
213	0xbe173970	-0.14768004
214	0x3e6561ed	0.22400637
215	0xbe9adcc9	-0.3024657
216	0xbe8fcf58	-0.28087878
217	0xbe9884eb	-0.29788908
218	0xbea0529c	-0.31313026
219	0xbef057e9	-0.4694207
220	0x3ecdd329	0.40200165
221	0xbbf34711	-0.0074242433
222	0x3e3b741d	0.18306012
223	0xbea5534b	-0.3229011
224	0x3e0d5f3a	0.13805857
225	0xbead36f0	-0.33830976
226	0x3e86abc1	0.26302913
227	0xbe92ce0e	-0.28672832
228	0xbeeb34e6	-0.45938796
229	0x3daa2109	0.08307082
230	0x3e9254ff	0.28580472
231	0x3de9ac83	0.11409857
232	0x3ea8c336	0.32961434
233	0xbea422e8	-0.3205788
234	0xbdbf9a93	-0.093556546
235	0x3d829349	0.06375749
236	0xbf0cf325	-0.5505851
237	0x3ee5368b	0.44768175
238	0xbe6ccb2e	-0.23124382
239	0x3eb57feb	0.35449156
240	0xbeec5341	-0.46157268
241	0xbe30fda6	-0.17284259
242	0xbf02016b	-0.50783414
243	0xbe721d18	-0.23643911
244	0x3d650e1a	0.05592165
245	0x3e2669c3	0.16251282
246	0xbf17fd68	-0.5937104
247	0x3cd66ee8	0.026175931
248	0xbeeee830	-0.4666152
249	0xbe4b8af0	-0.19877219
250	0x3ea4f141	0.32215312
251	0xbd4db96c	-0.05022566
252	0xbe58d66a	-0.21175542
253	0xbebd298f	-0.3694577
254	0x3e358b4e	0.17728922
255	0xbd90ef80	-0.07076931

conv2d_6/bias:0 f4 [16]
0	0x3e1b689a	0.15176621
1	0xbe52243a	-0.20521632
2	0x3db8346f	0.08994376
3	0xbce58a93	-0.028020179
4	0x3e384a42	0.17997077
5	0x3e822a31	0.25422814
6	0xbd042dd2	-0.03227026
7	0xbe147069	-0.14496006
8	0x3ead7755	0.33880106
9	0xbbd0ed2b	-0.006375929
10	0x3aa7823e	0.0012779904
11	0xbe79b188	-0.24384129
12	0xbf4f99e3	-0.8109419
13	0xbe85bb02	-0.26119238
14	0xbf2809b7	-0.65639824
15	0x3e9fa418	0.3117988

conv2d_5/kernel:0 f4 [16, 16, 2, 2]
0	0xbe974b94	-0.2954985
1	0x3da4aedd	0.08041165
2	0x3d1aabdc	0.037761554
3	0xbc5d29f9	-0.013498777
4	0x3e8faefa	0.28063184
5	0x3df2bc11	0.11852277
6	0x3dca1e1d	0.09869025
7	0xbda59b55	-0.08086268
8	0x3e1e4ef9	0.15459813
9	0x3e0489ef	0.12943242
10	0x3c6a4e9d	0.014300969
11	0x3d87b55d	0.06626389
12	0x3c8eec31	0.01744661
13	0x3e14e870	0.14541793
14	0x3dc09672	0.09403695
15	0x3e4c3c30	0.19944835
16	0x3e672ff1	0.22576882
17	0x3d79bd70	0.060971677
18	0xbe6c0202	-0.23047641
19	0x3eefeab5	0.46858755
20	0xbea0fddc	-0.3144368
21	0x3d71ee2f	0.05906504
22	0x3ee3895c	0.44440734
23	0x3d95a12e	0.07306133
24	0x3eaa297b	0.33234772
25	0x3ea66258	0.32496905
26	0x3da56ff6	0.080779955
27	0xbc9c2b46	-0.019063603
28	0x3e415c73	0.18882923
29	0xbe7779c9	-0.24167551
30	0xbdaf16d6	-0.085492775
31	0xbe4cb27c	-0.19989961
32	0x3def1e4b	0.116757
33	0xbe3c1784	-0.18368345
34	0xbe636c3b	-0.22209255
35	0xbe82b9d8	-0.25532413
36	0x3cb22340	0.021745324
37	0x3bad19a7	0.005282599
38	0x3eb82b59	0.35970572
39	0x3bc8b117	0.0061246264
40	0x3d079fd3	0.033111405
41	0xbe4e2e16	-0.20134768
42	0x3d048c64	0.03236045
43	0xbdb9ca96	-0.09071843
44	0x3ed3bd12	0.41355187
45	0x3dbf529b	0.093419276
46	0x3e0f1e12	0.13976315
47	0xbe1f63d3	-0.15565424
48	0xbe0372fd	-0.12836833
49	0xbec87c0a	-0.39157134
50	0x3eb6b5b6	0.3568551
51	0x3de21bf0	0.11040485
52	0xbe9840a3	-0.29736814
53	0x3d75b508	0.059987098
54	0xbe326711	-0.17422129
55	0x3cb705bc	0.022341602
56	0x3e7721e7	0.24134026
57	0xbe711f6f	-0.23547147
58	0xbd26dc70	-0.04073757
59	0xbe91afb0	-0.2845435
60	0x3dcb51d2	0.09927715
61	0xbe6b9182	-0.23004726
62	0xbe755a80	-0.23960304
63	0x3bf886a2	0.007584409
64	0x3dca012d	0.098635055
65	0xbe936cab	-0.28793845
66	0x3e44b977	0.19211374
67	0x3e65da8c	0.2244665
68	0x3e564f4d	0.20928688
69	0x3e13150d	0.14363499
70	0x3e6fd5e2	0.23421434
71	0x3e5394b9	0.20662202
72	0xbeaf30ec	-0.34217012
73	0x3e769335	0.24079593
74	0xbcae6685	-0.02128912
75	0xbdbbb117	-0.091646366
76	0x3e437591	0.19087817
77	0xbe89b85c	-0.26898468
78	0x3e6802b1	0.22657277
79	0x3ce78946	0.0282637
80	0xbe49bd1a	-0.19701043
81	0xbec0712b	-0.3758634
82	0xbe119a42	-0.14219001
83	0xbe25e51b	-0.16200678
84	0x3d3f77f6	0.046745263
85	0x3d366a7d	0.04453515
86	0x3daff33f	0.085913174
87	0xbe3ff5cd	-0.1874611
88	0x3ce5d7a2	0.028056923
89	0xbebc096c	-0.36725938
90	0xbdbf3e37	-0.093380384
91	0x3e4f054f	0.20216869
92	0x3c6a86b2	0.01431434
93	0xbe3de315	-0.18543656
94	0xbe350c9f	-0.17680596
95	0x3cc290de	0.023750719
96	0x3e3fcae4	0.1872974
97	0xbedecd46	-0.43515986
98	0x3b630a6c	0.0034643663
99	0x3ddd02cc	0.10791549
100	0xbef588c1	-0.47955897
101	0x3e528247	0.2055751
102	0x3dedff35	0.116209425
103	0xbcf9ef76	-0.030509692
104	0x3e87d1a1	0.26527122
105	0x3d3a1120	0.045426488
106	0x3ea23dd7	0.31687805
107	0xbe2f2696	-0.17104563
108	0xbeca236b	-0.39480147
109	0xbe399769	-0.18124165
110	0x3b183842	0.0023226892
111	0xbe7fa645	-0.2496577
112	0x3e5736a1	0.21016933
113	0xbdcf54e5	-0.10123614
114	0xbe14f8be	-0.14548013
115	0x3eb8f7ce	0.3612656
116	0xbdf088e1	-0.117448576
117	0x3f05ff34	0.52342534
118	0xbeb18375	-0.34670606
119	0x3ea089a2	0.31355006
120	0x3e555c92	0.20836094
121	0xbdf6cccf	-0.12050783
122	0xbd4baccb	-0.049725335
123	0xbe2640bd	-0.16235633
124	0xbe28d796	-0.1648849
125	0x3e7f8939	0.2495469
126	0xbf07c3b5	-0.53033
127	0x3e410dbd	0.18852897
128	0xbd5c050c	-0.05371575
129	0xbde34264	-0.110966474
130	0x3ceff8ee	0.029293504
131	0xbba63eeb	-0.0050734184
132	0x3e88d005	0.26721206
133	0x3dc4351a	0.09580441
134	0x3e4c7287	0.19965564
135	0x3e003427	0.12519895
136	0x3e9d09a2	0.30671412
137	0x3e2803ef	0.1640775
138	0x3e127e2e	0.14305946
139	0x3e46c9c3	0.19412903
140	0xbea713ad	-0.326322
141	0x3cba0198	0.022705838
142	0xbe4bd75e	-0.19906375
143	0xbeb27927	-0.34858057
144	0xbe8fa0c0	-0.2805233
145	0xbe291a55	-0.16513951
146	0x3e6321d1	0.22180869
147	0x3de3587b	0.11100861
148	0x3e7e76bb	0.2484998
149	0xbd96a92c	-0.07356486
150	0xbeb35571	-0.35026124
151	0xbd10b4cf	-0.035328683
152	0xbea4dcad	-0.32199612
153	0x3d0f64ae	0.035008125
154	0x3e81dbc5	0.25362983
155	0xbcc0b535	-0.023523906
156	0xbe939479	-0.28824213
157	0xbed6776b	-0.41887984
158	0x3d398d9d	0.04530107
159	0x3e8c0a4e	0.27351612
160	0x3e3b9e61	0.18322136
161	0xbe54f82b	-0.20797794
162	0x3e69c21f	0.22827958
163	0xbc77d2e6	-0.015125966
164	0xbd46587f	-0.04842424
165	0xbe70de3f	-0.2352228
166	0x3d897cfa	0.067132905
167	0xbb8e4a59	-0.004342359
168	0xbed3ce4d	-0.41368333
169	0xbdc0472c	-0.09388575
170	0x3dad2c34	0.08455697
171	0xbefd52c7	-0.49477217
172	0xbd83bdbc	-0.06432673
173	0xbde03b5b	-0.10948821
174	0xbf119ec8	-0.56882906
175	0x3ef7ed83	0.48423395
176	0x3dd01e80	0.101620674
177	0x3e037bb3	0.12840156
178	0x3bc9a9cc	0.0061542746
179	0xbea10874	-0.31451762
180	0x3e196f92	0.14983967
181	0xbd2bd453	-0.041950535
182	0x3e56809b	0.20947497
183	0xbd18791d	-0.037224878
184	0x3e4aefd3	0.19818048
185	0xbdbe9b37	-0.09306949
186	0x3ebd24d9	0.36942175
187	0x3e5fa0e3	0.21838717
188	0x3cb3ad68	0.021933272
189	0xbdc8ff0b	-0.098142706
190	0xbe62600d	-0.22106953
191	0xbea115f1	-0.31462052
192	0x3bc6e496	0.00606973
193	0x3eabf4c7	0.33585188
194	0xbe811173	-0.25208625
195	0xbdf352cd	-0.11881027
196	0x3d2bb4fe	0.041920654
197	0xbe0436c8	-0.12911522
198	0x3cf7965a	0.03022306
199	0x3e63a772	0.22231844
200	0x3d1811ef	0.037126478
201	0xbe65174f	-0.22372173
202	0x3ccaf357	0.024774237
203	0x3da24fe1	0.07925392
204	0xbeaa0221	-0.3320475
205	0x3e6ee336	0.23328862
206	0x3db38c82	0.08767034
207	0x3ee6035c	0.44924438
208	0xbdb4dc07	-0.088310294
209	0xbe4b5c3f	-0.19859408
210	0xbe8d1ace	-0.27559513
211	0x3dc80a7b	0.09767624
212	0x3e05fe0b	0.13085191
213	0x3e0ed061	0.13946678
214	0xbcec8923	-0.028873986
215	0xbedbc424	-0.4292308
216	0x3bc630b8	0.006048288
217	0xbd37cf65	-0.04487552
218	0xbe8c5bde	-0.2741384
219	0x3ec4c45d	0.38431063
220	0x3df799a9	0.12089855
221	0xbedf3bbd	-0.43600264
222	0x3e08a4b1	0.13344075
223	0xbcb73880	-0.022365808
224	0x38847640	6.316276e-05
225	0x3e68eca3	0.2274652
226	0xbe368358	-0.17823541
227	0x3c1df8b6	0.009641817
228	0xbe33feec	-0.17577714
229	0xbe5d6673	-0.21621113
230	0xbd02c403	-0.031925213
231	0xbe18a9b4	-0.14908487
232	0xbe3d1cf5	-0.18468077
233	0xbd3ee0ce	-0.04660111
234	0xbd069f98	-0.032867044
235	0x3e59dc96	0.21275553
236	0xbe994ad1	-0.29939893
237	0xbe734dde	-0.23760173
238	0xbdbcc1cb	-0.092166506
239	0x3d9e87b5	0.07740728
240	0x3e7bb4e6	0.24580726
241	0xbd98be5f	-0.074581854
242	0x3edf8171	0.43653443
243	0xbe6018b0	-0.21884418
244	0x3ec797d2	0.38983017
245	0xbe896c28	-0.2684033
246	0x3da470ab	0.08029302
247	0x3e8e435a	0.2778576
248	0x3d40d6a5	0.0470797
249	0x3e1cda59	0.15317668
250	0x3dc1e07b	0.094666444
251	0xbcc8223d	-0.024430389
252	0x3ef166f5	0.47148862
253	0xbcc26096	-0.023727696
254	0x3e8f50cc	0.2799133
255	0xbd9c4e2c	-0.076320976

conv2d_5/bias:0 f4 [16]
0	0xbe69fa49	-0.22849382
1	0xbf11a66e	-0.56894577
2	0xbdac4143	-0.08410885
3	0xbcfcd4e9	-0.030863242
4	0x3dafe520	0.08588624
5	0x3da5151d	0.08060668
6	0xbe708ee4	-0.23492008
7	0x3dff3db5	0.124629416
8	0x3ca780eb	0.020447215
9	0xbe319bf2	-0.17344645
10	0xba5cbc9c	-0.0008420439
11	0x3caacc91	0.020849498
12	0xbe68cdf7	-0.2273482
13	0xbdb6e13b	-0.08929678
14	0xbce82668	-0.028338626
15	0x3e054a89	0.13016714

conv2d_4/kernel:0 f4 [16, 16, 3, 3]
0	0xbd112c13	-0.035442423
1	0x3b310a0e	0.002701405
2	0xbe06d5f0	-0.13167548
3	0x3de5cc3d	0.11220596
4	0xbe927251	-0.28602841
5	0x3e3fe1e6	0.18738517
6	0xbee71921	-0.4513636
7	0x3d23d5a6	0.039998673
8	0xbe99255f	-0.29911324
9	0x3d656595	0.05600508
10	0x3d71580f	0.05892187
11	0xbe1af8f9	-0.15134038
12	0x3d0bcad0	0.034128964
13	0xbe343511	-0.17598368
14	0xbf078bf4	-0.52947927
15	0xbe45a609	-0.19301619
16	0xbe67eaa7	-0.22648107
17	0xbd514d90	-0.05109936
18	0xbd9c94c1	-0.0764556
19	0x3d79d385	0.060992736
20	0x3e82f0cd	0.2557434
21	0xbded3922	-0.11583163
22	0x3d992cc4	0.074792415
23	0x3db7343c	0.0894551
24	0xbf34bc29	-0.7059961
25	0x3d0e8fda	0.034805156
26	0xbe462389	-0.19349493
27	0x3de4fe3c	0.11181304
28	0x3e155bac	0.14585751
29	0x3e9ae25d	0.30250826
30	0xbe0f2481	-0.13978769
31	0x3c2e6d28	0.010646142
32	0xbd9d600b	-0.07684334
33	0x3e887491	0.26651433
34	0xbc81b482	-0.015833143
35	0xbe1352cc	-0.14387053
36	0x3efb323b	0.4906176
37	0x3eb0383f	0.34417912
38	0x3e788fa5	0.24273546
39	0x3df34efc	0.118802994
40	0x3e156a10	0.14591241
41	0xbb4dfdb8	-0.0031431746
42	0x3e901147	0.28138182
43	0x3e6c20de	0.23059413
44	0x3e9237f6	0.2855832
45	0xbd8ae919	-0.06782741
46	0xbda65292	-0.08121218
47	0x3eef5669	0.46745613
48	0xbe1b49d5	-0.15164883
49	0xbd1bfbd7	-0.03808197
50	0x3de36e7e	0.11105059
51	0xbe642280	-0.22278786
52	0x3d02f7f1	0.031974737
53	0xbb17efb6	-0.002318365
54	0x3e5fc965	0.2185417
55	0x3e9f17de	0.31072897
56	0x3e104fd0	0.14092946
57	0x3dc1c05d	0.094605185
58	0x3e6db579	0.23213758
59	0x3e47f478	0.19526851
60	0xbe9eadf6	-0.30992097
61	0x3df3f55c	0.11912033
62	0x3ecc6c27	0.39926264
63	0xbe0369af	-0.12833284
64	0x3da23190	0.079196095
65	0xbebc3a71	-0.36763337
66	0x3edb6b45	0.42855278
67	0xbbe14e88	-0.0068758167
68	0xbea2bd55	-0.31785074
69	0xbde15bea	-0.11003859
70	0xbe9a36e8	-0.30120015
71	0xbe7394ba	-0.23787203
72	0x3d3dca00	0.04633522
73	0xbc939cc5	-0.01801909
74	0xbe699906	-0.2281228
75	0x3c3da6bf	0.0115754
76	0xbdfa105c	-0.122101516
77	0xbe0f8bbb	-0.14018147
78	0xbdc4181e	-0.095749125
79	0x3d6004e9	0.054692183
80	0xbd622e9e	-0.05522024
81	0xbe5ed3c5	-0.21760471
82	0xbd0f82b3	-0.035036754
83	0x3edda935	0.43293157
84	0x3d812092	0.063050404
85	0xbd65df0e	-0.056120925
86	0x3e12c390	0.14332414
87	0x3dde45a6	0.10853128
88	0xbdfe27a8	-0.124099076
89	0x3e7226fd	0.23647685
90	0x3e1da022	0.15393117
91	0x3e8b2a72	0.2718082
92	0xbd98c15c	-0.074587554
93	0x3e3f198e	0.18662092
94	0xbe73660c	-0.23769397
95	0x3d039191	0.032121245
96	0xbe0efeae	-0.1396434
97	0x3d36e2bd	0.04464983
98	0x3e11a17e	0.1422176
99	0x3c21386f	0.009840115
100	0x3e263b1e	0.16233489
101	0xbcc2f312	-0.023797546
102	0xbcd9e93d	-0.026600474
103	0x3e543952	0.20724991
104	0xbda33e46	-0.07970862
105	0xbe29e756	-0.16592154
106	0x3d879968	0.06621057
107	0xbdbb42ea	-0.09143622
108	0x3e676397	0.22596584
109	0x3ec88008	0.3916018
110	0xbe8907f4	-0.2676388
111	0x3da9dd47	0.082941584
112	0xbebe5c22	-0.37179667
113	0xbef91c02	-0.4865418
114	0xbde7dc43	-0.113213085
115	0x3da75658	0.08170766
116	0x3dc86f70	0.0978688
117	0x3e6cf97a	0.23142043
118	0x3ea3c4d9	0.3198612
119	0xbd4510a5	-0.048111577
120	0xbe36c470	-0.17848372
121	0x3d92167c	0.07133195
122	0xbcd92979	-0.026509034
123	0x3ca9023e	0.020630952
124	0x3d3cd0c0	0.046097517
125	0x3c80a94c	0.015705727
126	0x3e44e79e	0.1922898
127	0xbeb77dab	-0.35838065
128	0xbdedb96b	-0.11607631
129	0x3c81e714	0.015857257
130	0xbe4381fa	-0.19092551
131	0xbe03f6bc	-0.1288709
132	0x3df30145	0.118654765
133	0xbe014e6e	-0.12627575
134	0x3e54a588	0.2076627
135	0xbdd31833	-0.1030735
136	0x3da655b7	0.081218176
137	0x3eb4318a	0.35194045
138	0x3e083d75	0.13304694
139	0x3ec9c636	0.39409035
140	0x3e04ecd5	0.12980969
141	0xbe8b62c1	-0.2722378
142	0x3bc4d3c3	0.0060066893
143	0xbe3a63fe	-0.18202206
144	0x3ee79bd3	0.45236072
145	0x3d624065	0.055237193
146	0x3e6d9058	0.23199594
147	0x3dab2c4b	0.083580576
148	0xbd82f23c	-0.06393859
149	0x3e48b150	0.1959889
150	0x3e98a91b	0.29816517
151	0x3e16c236	0.14722523
152	0x3d378e20	0.044813275
153	0x3e692a6c	0.22770089
154	0x3d4f5b0e	0.050623946
155	0x3eaf5b12	0.3424917
156	0x3e8694fd	0.26285544
157	0x3e667c91	0.22508456
158	0x3e38e9e0	0.18057966
159	0x3e4d421a	0.20044747
160	0xbe4d5f5b	-0.20055906
161	0x3dea441d	0.11438773
162	0x3e9dba3e	0.30806154
163	0x3da1bd1d	0.078973986
164	0x3e7c70ec	0.24652451
165	0xbe1e2ab2	-0.15445974
166	0x3dcdf205	0.10055927
167	0x3d379461	0.04481924
168	0x3e2cf830	0.16891551
169	0x3de4c78c	0.11170873
170	0x3ea79a93	0.32735118
171	0x3bfe9164	0.0077687968
172	0xbe36a83d	-0.17837615
173	0x3e78c0fa	0.24292365
174	0x3e94ff48	0.29101014
175	0x3e3c8fef	0.18414281
176	0xbe56fbf7	-0.20994554
177	0x3cd0a470	0.025469035
178	0x3d4b7d63	0.049680125
179	0x3e9ac6f2	0.30229908
180	0xbe14ecce	-0.14543459
181	0x3e52e995	0.20596917
182	0xbe5e8797	-0.21731411
183	0x3cf80e0d	0.030280137
184	0x3eb35ef9	0.35033396
185	0x3d1b4d62	0.037915595
186	0xbed24713	-0.4106985
187	0x3e9d8d39	0.30771807
188	0x3e6e7c79	0.2328967
189	0xbe444942	-0.1916857
190	0xbe5b0089	-0.21386923
191	0xbdad121f	-0.08450722
192	0xbf10db46	-0.56584585
193	0xbe3d645e	-0.18495318
194	0xbed03c79	-0.40671137
195	0x3cbe143f	0.023203013
196	0x3d732683	0.0593629
197	0xbdda392b	-0.10655435
198	0xba76bde8	-0.00094124535
199	0x3d9d0632	0.07667197
200	0xbe40c5b3	-0.18825416
201	0xbc7b524e	-0.015339447
202	0x3e23c860	0.15994406
203	0x3d47582c	0.04866807
204	0xbbce59e8	-0.0062973388
205	0x3d32d13a	0.043656565
206	0x3db20047	0.08691459
207	0x3e4788c1	0.19485761
208	0x3e77d0d5	0.24200757
209	0x3eaff6dd	0.3436803
210	0x3e88c676	0.26713914
211	0x3d8e474b	0.06947192
212	0x3da79961	0.081835516
213	0x3ed2969e	0.41130537
214	0x3eab3594	0.33439314
215	0xbe3f1f4d	-0.18664284
216	0x3e70e6db	0.23525564
217	0x3f1a7436	0.60333574
218	0x3e33e562	0.17567971
219	0xbe0a2615	-0.1349109
220	0x3e04f5c5	0.12984379
221	0x3e518648	0.2046138
222	0x3e4ef0cb	0.20209043
223	0x3e694df7	0.22783647
224	0x3cef388c	0.029201768
225	0x3e33b8a1	0.17550899
226	0xbc11d30b	-0.008900414
227	0xbe5fefcc	-0.21868819
228	0xbe01a683	-0.12661175
229	0xbd9309f0	-0.0717963
230	0x3e1a36dd	0.15059991
231	0x3dd0ae13	0.10189452
232	0xbe24892e	-0.16067955
233	0x3e0bde2f	0.13658975
234	0x3e444f7c	0.19170946
235	0x3e82696b	0.25471053
236	0xbcd41c65	-0.025892446
237	0x3e0e17de	0.13876292
238	0xbe260c88	-0.16215718
239	0x3df59bf6	0.11992638
240	0xbd8a25f2	-0.06745519
241	0x3e3bc4dc	0.18336815
242	0xbe3212bb	-0.17389958
243	0xbdcc4930	-0.09974897
244	0xbeaab4cd	-0.33341065
245	0x3cde512b	0.027138313
246	0x3e191e3b	0.14952938
247	0x3cdf33a8	0.027246311
248	0xbc00017a	-0.007812852
249	0xbe92c11d	-0.2866296
250	0x3e96c0e5	0.29444042
251	0x3e962411	0.2932439
252	0x3d9e18d7	0.077195816
253	0x3e8622d7	0.26198456
254	0x3ec4672d	0.38359967
255	0x3c812bb3	0.015767908

conv2d_4/bias:0 f4 [16]
0	0x3e2e7492	0.17036656
1	0xbe48f23c	-0.19623655
2	0xbdd809e2	-0.1054876
3	0xbda62182	-0.0811186
4	0x3e6cbe0f	0.23119377
5	0xbee3789d	-0.44427958
6	0xbe1ebb25	-0.15501077
7	0x3e2e19a9	0.17001976
8	0x3e749007	0.23883067
9	0xbc2ce38c	-0.010552298
10	0x3e05cdca	0.13066784
11	0xbc7bb628	-0.015363254
12	0xbeb7d31f	-0.3590326
13	0xbbe40943	-0.006959112
14	0xbe78c76d	-0.24294825
15	0x3e7d0fb8	0.24713027

scale1 f4 [16]
0	0x3e7e6052	0.24841431
1	0x3e2b5ba8	0.16734183
2	0x3ea61574	0.32438242
3	0x3e2b5cd3	0.16734628
4	0x3e1c9b6f	0.15293668
5	0x3e747de8	0.23876154
6	0x3dfc9688	0.12333399
7	0x3db184e7	0.08667927
8	0x3eca4add	0.3951024
9	0x3e6dffc5	0.232421
10	0x3e2e0db4	0.16997415
11	0x3e2d41b7	0.169196
12	0x3dc1ff43	0.094725154
13	0x3e6d0a04	0.23148352
14	0x3e09f549	0.13472475
15	0x3e8da166	0.276622

bias1 f4 [16]
0	0xbf3db3b2	-0.7410232
1	0xbfd499a7	-1.6609391
2	0xbf9bdf2a	-1.2177479
3	0xbfb82f25	-1.4389387
4	0xbf3071b5	-0.68923503
5	0xc01c007f	-2.4375303
6	0xbf56081b	-0.8360612
7	0xbfc2bcff	-1.5213927
8	0xbdc3f6c6	-0.09568553
9	0xbfe23789	-1.7673198
10	0xbef2ef32	-0.47448117
11	0xbfdf7670	-1.7458019
12	0xbfdddb72	-1.7332594
13	0xbf4a4e50	-0.79025745
14	0xbf5a2ec6	-0.8522762
15	0xbf20a050	-0.6274462

mean1 f4 [16]
0	0x00000000	0.0
1	0x00000000	0.0
2	0x00000000	0.0
3	0x00000000	0.0
4	0x00000000	0.0
5	0x00000000	0.0
6	0x00000000	0.0
7	0x00000000	0.0
8	0x00000000	0.0
9	0x00000000	0.0
10	0x00000000	0.0
11	0x00000000	0.0
12	0x00000000	0.0
13	0x00000000	0.0
14	0x00000000	0.0
15	0x00000000	0.0

var1 f4 [16]
0	0x3f800000	1.0
1	0x3f800000	1.0
2	0x3f800000	1.0
3	0x3f800000	1.0
4	0x3f800000	1.0
5	0x3f800000	1.0
6	0x3f800000	1.0
7	0x3f800000	1.0
8	0x3f800000	1.0
9	0x3f800000	1.0
10	0x3f800000	1.0
11	0x3f800000	1.0
12	0x3f800000	1.0
13	0x3f800000	1.0
14	0x3f800000	1.0
15	0x3f800000	1.0

conv2d_3/kernel:0 f4 [16, 16, 1, 1]
0	0xbed9e016	-0.42553777
1	0x3de7884d	0.11305294
2	0xbeac0dde	-0.3360433
3	0xbea1f133	-0.31629333
4	0x3f033f5c	0.51268554
5	0x3da5e4b6	0.08100264
6	0x3d5831db	0.05278192
7	0x3dcd0e1a	0.10012455
8	0xbee1d84a	-0.44110328
9	0xbd043bdd	-0.032283653
10	0xbec31265	-0.3809997
11	0x3dfaf5f4	0.12253943
12	0xbee8966a	-0.45427257
13	0xbf1498a9	-0.5804544
14	0x3e022cd7	0.12712418
15	0x3ef2a27a	0.47389585
16	0x3d0dc0ea	0.034607805
17	0xbe31252c	-0.17299336
18	0xbdabee0c	-0.08395013
19	0x3ec7ce8a	0.39024764
20	0x3ed5eea4	0.4178363
21	0xbf0cdad0	-0.5502138
22	0x3e4191e8	0.18903315
23	0xbe9f7047	-0.31140348
24	0x3e9742d5	0.29543176
25	0x3e8c0b5e	0.27352422
26	0x3ec5fbaf	0.38668582
27	0x3e4d2677	0.20034204
28	0xbd252546	-0.04031875
29	0x3f1369c9	0.5758329
30	0x3e69f988	0.22849095
31	0x3ea56e8d	0.32310906
32	0xbde94fae	-0.11392151
33	0x3d9981d0	0.07495463
34	0x3e269ba6	0.16270313
35	0xbf09df92	-0.53856766
36	0x3e95f08c	0.29285085
37	0x3db39316	0.08768289
38	0xbe54e6fe	-0.20791242
39	0xbe582870	-0.21109176
40	0x3d928338	0.07153934
41	0x3f059fca	0.52196944
42	0x3e39c563	0.18141703
43	0xbf1ed5c7	-0.6204495
44	0xbe6b2b8e	-0.22965834
45	0x3cae9882	0.021312956
46	0xbd0de8fa	-0.034646012
47	0xbe2f66f9	-0.17129125
48	0xbf281426	-0.65655744
49	0xbdcf9d53	-0.10137429
50	0xbe8010e7	-0.25012895
51	0x3d34480d	0.044014025
52	0x3d8fd189	0.070223875
53	0x3e0fd7fd	0.14047237
54	0x3dfd740d	0.123756506
55	0x3f1d0a64	0.6134398
56	0x3e53dc7a	0.20689574
57	0x3e1b8519	0.15187491
58	0xb8130140	-3.5048695e-05
59	0x3e8d01af	0.27540347
60	0x3e1779f1	0.1479261
61	0x3f1b09ab	0.6056163
62	0xbe99a0de	-0.30005544
63	0x3e5e72ab	0.2172343
64	0xbf0ee7d8	-0.55822515
65	0x3e808f18	0.25109172
66	0x3c4caadb	0.012491907
67	0xbdf96808	-0.121780455
68	0xbe532515	-0.20619614
69	0xbdcef106	-0.10104565
70	0xbe121eba	-0.14269534
71	0x3ef2e86e	0.47442955
72	0xbe891ec6	-0.2678129
73	0x3d9b5da4	0.0758622
74	0xbf0e1f41	-0.5551644
75	0x3ebb9b3d	0.36641875
76	0x3e5a0a86	0.21293077
77	0x3d81c181	0.06335736
78	0x3ed38b81	0.4131737
79	0xbc4d7df1	-0.012542234
80	0x3e004c27	0.1252905
81	0x3eb1fbaf	0.34762332
82	0x3e97625c	0.2956723
83	0xbe97bb1f	-0.2963495
84	0xbcb78179	-0.022400605
85	0xbf0f1d84	-0.5590441
86	0x3e550887	0.20804034
87	0x3f0d536b	0.5520541
88	0x3e56f1a1	0.20990612
89	0xbbcb5392	-0.0062050307
90	0xbe9c7375	-0.30556837
91	0xbeb9fa4c	-0.36323774
92	0xbda92f51	-0.08260978
93	0x3db51977	0.08842748
94	0xbee5dfeb	-0.44897398
95	0x3e04b9f6	0.12961563
96	0xbef25fdc	-0.4733876
97	0x3d9160ad	0.070985176
98	0x3e74729d	0.23871846
99	0x3e64ecd7	0.22355972
100	0xbe54b399	-0.20771636
101	0x3eded067	0.43518373
102	0xbf279095	-0.6545499
103	0xbf228a50	-0.634923
104	0xbefa7443	-0.48916826
105	0xbadad513	-0.0016695581
106	0xbe373837	-0.17892538
107	0xbddc2fa6	-0.10751276
108	0xbe5ceaef	-0.21573995
109	0x3d979097	0.07400625
110	0x3ea50d77	0.32236835
111	0xbe60db12	-0.21958569
112	0x3e6df4d3	0.23237924
113	0x3eb91a77	0.36153004
114	0x3f07dabf	0.53068155
115	0x3e5d21a2	0.21594861
116	0xbb879be9	-0.004138459
117	0xbe84882f	-0.2588515
118	0xbf1995ba	-0.5999409
119	0x3ed96c4c	0.42465436
120	0x3dab22e5	0.08356265
121	0xbea0172e	-0.31267685
122	0x3d6123b2	0.054965682
123	0x3e9a52b9	0.30141237
124	0x3efd9659	0.4952877
125	0x3d851bbc	0.064994305
126	0xbea992cc	-0.3311981
127	0xbe25095f	-0.16116856
128	0x3d14c901	0.036324505
129	0x3e536167	0.20642625
130	0xbeb2582f	-0.34832904
131	0x3e9fb388	0.3119166
132	0xbe969dc9	-0.29417256
133	0xbea0bdad	-0.3139471
134	0x3d1c462e	0.038152866
135	0xbe6eff07	-0.23339473
136	0xbf01c140	-0.506855
137	0xbd4faf52	-0.050704308
138	0xbee476de	-0.44621938
139	0xbe9e8e68	-0.30968022
140	0x3d83dd54	0.06438699
141	0xbed4468d	-0.41460076
142	0xbeb2ba60	-0.34907818
143	0x3ead001a	0.3378914
144	0x3dcc097f	0.09962749
145	0xbe696ace	-0.22794649
146	0xbe6f920f	-0.2339556
147	0x3db32c93	0.08748736
148	0x3e9060bb	0.281988
149	0xbde71eab	-0.11285146
150	0x3ea18c20	0.3155222
151	0x3e9f48ff	0.3111038
152	0x3e8b57ff	0.27215573
153	0x3d37b499	0.044849966
154	0x3ed5d921	0.4176722
155	0xbe02ad27	-0.12761365
156	0x3df1b8b2	0.11802806
157	0xbe9154ec	-0.28385103
158	0xbf268dad	-0.6505993
159	0xbed41e2d	-0.41429272
160	0xbe91433d	-0.2837161
161	0x3f1d1327	0.6135735
162	0x3d6fecb4	0.058575347
163	0xbd6bea78	-0.057596654
164	0xbe095ffc	-0.13415521
165	0x3db474f6	0.08811371
166	0x3df59535	0.119913496
167	0x3d21cf27	0.039504196
168	0x3cb829e5	0.022480914
169	0xbec4df59	-0.3845165
170	0xbe7eaaee	-0.24869892
171	0xbe265d2a	-0.16246477
172	0xbea9e39b	-0.33181462
173	0x3acc8a19	0.0015605121
174	0xbec6e591	-0.3884702
175	0x3ee5b407	0.44863912
176	0x3e5df648	0.2167598
177	0x3e184722	0.14870885
178	0x3d07d9f2	0.033166833
179	0x3bbd55ae	0.005778036
180	0xbddf61e1	-0.10907341
181	0xbdcaecbf	-0.09908437
182	0x3df0c748	0.1175676
183	0x3e897d78	0.26853538
184	0xbad27f1a	-0.0016059608
185	0x3ea6791a	0.32514268
186	0x3e8f2b18	0.27962565
187	0xbd84ec92	-0.06490435
188	0xbec6b5d8	-0.3881061
189	0xbe84e1b3	-0.25953445
190	0xbec55bcd	-0.385466
191	0x3f22d874	0.6361153
192	0x3ebba084	0.366459
193	0xbf1abbbb	-0.60442704
194	0xbe43bced	-0.19115038
195	0x3eed7e7d	0.46385565
196	0x3e5d2572	0.21596316
197	0x3e7efa75	0.2490023
198	0xbe1aaa12	-0.15103939
199	0x3e1387d8	0.14407289
200	0x3ef6b6ab	0.4818624
201	0xbea2bdb2	-0.3178535
202	0x3b89522a	0.004190703
203	0x3e51194c	0.20419806
204	0x3f17d33c	0.59306693
205	0xbd545201	-0.051836018
206	0x3ec6381b	0.3871468
207	0x3ebee7b2	0.37286144
208	0xbedfd979	-0.43720606
209	0x3d31908c	0.04335074
210	0xbed112fb	-0.40834793
211	0xbe64f6fe	-0.22359845
212	0x3d3f2a1f	0.04667103
213	0xbc44e610	-0.012017742
214	0xbef8acb2	-0.48569256
215	0x3d97a240	0.074039936
216	0x3dc59fbd	0.09649608
217	0xbd7449d5	-0.059640724
218	0x3e2f6e2f	0.17131875
219	0xbeddc255	-0.43312326
220	0x3eeb23e2	0.45925814
221	0x3e148820	0.14505053
222	0x3ed9a121	0.42505744
223	0x3e775455	0.24153264
224	0x3e4f7f16	0.20263323
225	0x3e99ac43	0.30014238
226	0x3e814690	0.25249147
227	0xbd8f4c97	-0.0699703
228	0xbd93787f	-0.07200717
229	0xbf4544ab	-0.77057904
230	0x3edc0ea3	0.42979917
231	0xbdadcb47	-0.08486038
232	0xbd831796	-0.06400983
233	0xbf0d1ed2	-0.55125153
234	0x3e88bbad	0.26705685
235	0x3d3e78f0	0.046502054
236	0xbd168b9d	-0.03675424
237	0x3ec6d520	0.38834476
238	0x3ec117f8	0.377136
239	0xbedf4b4a	-0.43612128
240	0xbf3e8d69	-0.74434525
241	0xbe1d0ffd	-0.1533813
242	0xbe285aee	-0.16440937
243	0x3d7b8488	0.06140569
244	0x3f0e5a10	0.55606174
245	0x3e66b372	0.2252939
246	0xbed68076	-0.41894883
247	0xbf2b3fc7	-0.6689419
248	0x3c9f6400	0.019456863
249	0x3a92e175	0.0011206107
250	0xbe914541	-0.2837315
251	0x3e4a274b	0.19741552
252	0xbe938162	-0.2880965
253	0x3e89f91b	0.26947865
254	0xbda55f2f	-0.080747955
255	0x3db6f54e	0.08933507

conv2d_3/bias:0 f4 [16]
0	0xbeef1628	-0.4669659
1	0xbe1c9dce	-0.15294573
2	0xbe889341	-0.26674846
3	0xbe973ead	-0.29540005
4	0xbeb79710	-0.3585744
5	0xbdafa21f	-0.08575844
6	0x3e16d43c	0.14729398
7	0x3ec6c076	0.3881871
8	0xbd72666e	-0.059179716
9	0xbe4b800b	-0.19873063
10	0xbd15915a	-0.03651557
11	0xbed45034	-0.4146744
12	0xbe5700fc	-0.2099647
13	0xbe17f9fc	-0.14841455
14	0x3d0adf0a	0.033904113
15	0xbeacce09	-0.33750942
